results/WeinrebConstRates/model_last.pt (torch, 184290 bytes, 18 tensors)

K1 f4 [14, 22, 22]
0.066620305 -0.5697441 0.050371 0.07227146 -0.043974165 0.08710383 -0.07378817 0.07937055
-0.06509883 0.020948952 -0.056400623 -0.017536778 0.032334216 -0.08280748 -0.030233959 0.058807544
0.06623545 -0.06423665 -0.07073455 -0.058057953 -0.026333056 0.030515108 0.07232514 0.05780489
-0.49473628 -0.28811175 0.036042288 0.016458213 0.06030262 -0.5711387 0.031076305 0.024419036
0.063601084 -0.050148465 0.081832394 0.071497425 0.0070809494 0.014585383 0.048524886 -0.042037554
0.00942493 -0.05696253 0.063360445 -0.061613634 -0.020414153 -0.06878434 0.05030188 -0.05196913
0.018421607 0.026852481 -0.1721758 0.04657106 0.06744858 -0.29591653 -0.039621923 -0.015878607
-0.01228926 0.07305072 0.08123903 -0.06627774 -0.08639789 0.015780581 0.025817106 -0.004208745
-0.0022653453 0.032658473 0.080046035 -0.040171538 0.01559129 -0.051972218 -0.02221662 -0.08127232
-0.03340229 0.030623775 -0.0820354 -0.032157283 -0.24505033 -0.06133087 -0.00067387946 -0.0136692645
0.040146526 -0.06990408 0.00772816 0.047450215 -0.04023266 -0.03187163 0.06801982 -0.0445172
-0.019092314 -0.024605608 0.04425166 0.07837589 0.05194047 -0.19268733 -0.07233058 0.02831604
1.0923138 0.073381476 -0.086685285 -0.056937493 -0.020061942 -0.009923448 -0.075514056 0.043349028
0.052784126 1.0662632 -0.024381006 -0.06532377 0.08378136 -0.0724065 0.017583659 -0.052393775
-0.053111203 0.029038839 0.059237257 -0.029004421 -0.08662909 -0.047110785 0.04501481 0.03394517
0.05831897 0.028904632 -1.373347 -0.035562824 0.48815668 -0.06481698 -0.00805378 -0.08000193
0.058850333 0.051686797 -0.042452976 -0.04759537 -0.042423632 0.008224376 -0.08625876 0.083848715
-0.06319034 0.013625879 0.024931181 0.0792044 0.015800718 -0.004334049 0.06601902 -0.025897158
0.041817836 -0.46902376 0.08271512 -0.010729104 -0.05134869 0.058261856 0.006941401 0.64831394
-0.06356807 0.08403714 0.0511746 -0.086064264 -0.033666763 -0.07191299 -0.04652043 -0.07667455
-0.019034725 0.019148568 -0.031032031 -0.052536085 0.03175732 0.053794015 -0.08650353 -0.08479797
0.022924598 0.04180078 0.3453346 -0.061457828 0.0039315303 0.014135843 0.069910906 -0.060178168
0.07681614 0.078695334 -0.06683693 -0.08643051 0.07978932 -0.037545465 0.033924956 0.011209492
0.04548095 -0.053311463 -0.060759157 -0.027954655 0.05409544 0.03238557 0.05841952 -0.4443338
-0.03259199 0.032630384 -0.62699413 -0.015171892 0.06828265 0.078030646 -0.06392702 -0.07402122
0.071500205 -0.068173714 -0.029403243 -0.052166887 -0.071511015 -0.07679097 0.045792397 -0.07805527
-0.08600016 -0.0639217 0.065198794 -0.047842752 0.08590867 -0.009501555 -0.049611706 0.07374006
-0.078911275 -0.7455827 -0.06653408 0.051150966 0.07574 0.06727301 0.02509846 -0.058616877
-0.030891916 0.00024148247 0.06469377 0.03657965 0.03258325 -0.028403737 -0.070771955 -0.11221136
0.08240702 -0.056019105 -0.0133521035 -0.0075848913 -0.078559585 0.0012236292 -0.08193219 -0.03173909
-0.006736065 0.0658285 0.01630869 0.01450145 0.03609388 0.035294462 -0.08431432 -0.03242437
-0.06396407 -0.013072505 -0.015312026 0.029426925 0.06497889 -0.04224012 -0.020554105 -0.0067987954
00000000: 3a70 883d c0da 11bf d251 4e3d 0f03 943d
00000010: 411e 34bd 7e63 b23d 411e 97bd 078d a23d
00000020: 8952 85bd 239d ab3c 5704 67bd 4aa9 8fbc
00000030: e270 043d f896 a9bd 35ad f7bc 2ee0 703d
00000040: 74a6 873d 818e 83bd 47dd 90bd 2dce 6dbd
00000050: 6cb8 d7bc d2fa f93c 341f 943d d2c4 6c3d
00000060: 134e fdbe 6283 93be 14a1 133d 60d3 863c
00000070: e1ff 763d 2536 12bf bc93 fe3c 6e0a c83c
00000080: 4941 823d 7a68 4dbd be97 a73d 3e6d 923d
00000090: 4f07 e83b 88f7 6e3c 08c2 463d 922f 2cbd
000000a0: 066b 1a3c 8b51 69bd 1fc3 813d 945e 7cbd
000000b0: 953b a7bc cede 8cbd 5809 4e3d 95dd 54bd
000000c0: e9e8 963c bcf9 db3c da4e 30be 4cc1 3e3d
000000d0: 7b22 8a3d 5f82 97be 994a 22bd da13 82bc
000000e0: e458 49bc 9e9b 953d a660 a63d a0bc 87bd
000000f0: 60f1 b0bd 4746 813c 657e d33c 83e9 89bb
00000100: 3076 14bb e4c4 053d 2def a33d e98a 24bd
00000110: 9c72 7f3c d2e0 54bd a1ff b5bc 1a72 a6bd
00000120: d7d0 08bd b6de fa3c 2d02 a8bd 5bb7 03bd
00000130: 79ee 7abe 1436 7bbd 49a7 30ba 0df5 5fbc
00000140: af70 243d df29 8fbd 813c fd3b 285b 423d
00000150: 00cb 24bd d48b 02bd fa4d 8b3d ab57 36bd
00000160: 7c67 9cbc b391 c9bc 3b41 353d 8a83 a03d
00000170: 88bf 543d d44f 45be 0e22 94bd 0af7 e73c
00000180: f0d0 8b3f 0749 963d 0e88 b1bd 4a37 69bd
00000190: f158 a4bc f595 22bc 1da7 9abd c08e 313d
000001a0: 2b34 583d 507b 883f adba c7bc 78c8 85bd
000001b0: 9095 ab3d dc49 94bd 9b0b 903c db9a 56bd
000001c0: 228b 59bd dce2 ed3c c4a2 723d ae9a edbc
000001d0: 986a b1bd 3df7 40bd 7361 383d 170a 0b3d
000001e0: dfdf 6e3d 68c9 ec3c d6c9 afbf 53aa 11bd
000001f0: acef f93e c4be 84bd 00f4 03bc 0dd8 a3bd
00000200: 0c0d 713d 89b5 533d 2ce3 2dbd 5df3 42bd
00000210: 67c4 2dbd 88bf 063c 6fa8 b0bd e0b8 ab3d
00000220: f069 81bd 143f 5f3c 7a3c cc3c eb35 a23d
00000230: 8270 813c a304 8ebb fb34 873d 4726 d4bc
00000240: 2e49 2b3d e223 f0be 8b66 a93d 20c9 2fbc
00000250: 0153 52bd fca3 6e3d b174 e33b e7f7 253f
00000260: fa2f 82bd aa1b ac3d 759c 513d 7642 b0bd
00000270: 29e6 09bd 1e47 93bd 358c 3ebd 8c07 9dbd
00000280: b6ee 9bbc 75dd 9c3c e336 febc 1430 57bd
00000290: f713 023d 1d57 5c3d c328 b1bd 8faa adbd
000002a0: 5ecc bb3c 4b37 2b3d b2cf b03e 34bb 7bbd
000002b0: 11d4 803b 069a 673c 732d 8f3d 627d 76bd
000002c0: c851 9d3d 052b a13d cde1 88bd 7b02 b1bd
000002d0: 9568 a33d 46c9 19bd e5f4 0a3d 04a8 373c
000002e0: 3c4a 3a3d 1f5d 5abd 98de 78bd 2901 e5bc
000002f0: 2e93 5d3d bba6 043d 4e49 6f3d b87f e3be
00000300: 2e7f 05bd 70a7 053d b082 20bf 8793 78bc
00000310: c6d7 8b3d 88ce 9f3d 2bec 82bd 7098 97bd
00000320: b36e 923d a99e 8bbd 12df f0bc f2ac 55bd
00000330: 5e74 92bd 9644 9dbd cf90 3b3d 71db 9fbd
00000340: da20 b0bd 61e9 82bd f286 853d c3f6 43bd
00000350: e3f0 af3d 69ac 1bbc a535 4bbd 0705 973d
00000360: 3c9c a1bd 82de 3ebf 0543 88bd ad83 513d
00000370: 931d 9b3d 6fc6 893d 499b cd3c 4018 70bd
00000380: 0b11 fdbc 7536 7d39 2b7e 843d 8bd4 153d
00000390: 0476 053d f4ae e8bc e3f0 90bd 12cf e5bd
000003a0: 03c5 a83d 4a74 65bd c8c2 5abc ae8a f8bb
000003b0: d9e3 a0bd 2f62 a03a 10cc a7bd d900 02bd
000003c0: 35ba dcbb 18d1 863d cd99 853c 7d97 6d3c
000003d0: 2dd7 133d ed90 103d fcac acbd 6bcf 04bd
000003e0: 98ff 82bd 0f2e 56bc 4bdf 7abc bc10 f13c
000003f0: a713 853d fa03 2dbd 1561 a8bc 6ec8 debb

K2 f4 [14, 22, 1]
-0.11139947 0.9914666 0.8015746 0.8327749 2.9173276 3.7976484 0.9353739 -0.951251
0.55949897 2.1837342 1.438944 2.4839165 -0.00024115233 -0.025014846 -0.0021333892 -0.050930128
-0.20436837 0.0002158971 -0.0022486446 0.29685768 8.251168e-05 -0.09493042 -0.09557998 0.7999529
0.94145864 1.1179247 1.7160875 3.4735334 0.5170559 -0.9683383 0.2808483 1.4582735
1.894065 1.8092889 -0.00033449812 -0.20055552 -0.00086259877 -5.1619407e-09 -3.5130976e-10 -0.0005582662
-0.0022742904 -0.026842792 -0.0003966413 -1.0465675e-08 -0.292216 1.6984122 0.7727249 0.7431623
1.6328201 1.5254726 0.2473853 -0.90203726 0.107847 0.7794218 1.0451493 2.5834894
0.8992051 -0.13616839 0.00030572872 -0.07506255 -4.8889057e-09 5.9753493e-05 -0.0016571513 -0.06697636
-0.0001028403 -0.0018773376 0.059632584 0.69651794 0.8877077 0.71246684 3.1620626 4.6235676
-0.036596827 -0.9034571 1.0310305 1.966911 0.4937889 1.537396 9.338702e-05 -0.12247925
-0.0006685334 -0.09625806 -2.5248804e-07 0.00039714057 -0.001474684 -0.00013656159 0.2504644 -3.3332176e-07
-4.618149e-05 0.63104916 0.95713276 0.7918941 1.4056574 4.416709 0.5216834 -1.0000656
1.4324496 0.91746783 1.6045779 3.547939 -0.00023907455 -2.010888e-07 -0.00012611353 -0.0013991842
-2.381196e-07 0.40796176 -2.4451558e-05 -0.0019300863 -0.00096537045 -9.264621e-10 0.28767952 0.93255454
0.9153807 1.4973352 2.4432433 4.218706 0.38136655 -0.95868963 0.74988467 0.7353079
2.218949 -1.1135551e-36 -6.104653e-07 -8.4612975e-07 -0.0017247563 -7.1249985e-08 -0.5781793 -0.0006546673
-6.594493e-08 -0.1045236 -3.906385e-07 -1.7256903e-06 5.497492 0.0007565983 0.46346167 0.4607474
1.5673362 4.070339 0.1685545 -3.281831 0.020649018 1.0480312 0.4046856 2.335516
-0.00014242686 -0.16191565 -0.0011423803 -5.5667035e-09 -0.26894987 -5.096376e-06 -1.2900008e-05 -0.020428542
-0.002921419 -1.9776028e-06 0.61946046 0.6955358 0.8675757 0.36196485 0.20704517 3.2936163
0.83946353 -1.4573984 -3.5814712e-22 0.9492456 0.3336552 2.5178375 -0.001070711 -0.00010578833
-0.00018002423 -8.438498e-07 -0.28372735 -8.0578444e-05 -1.18733816e-07 -0.0010168697 -0.0005785492 -1.9072264e-08
0.24197915 1.6366602 1.5564568 1.8171054 2.3135061 3.7010355 -1.4285604e-35 -1.1758716
0.85893744 1.0192982 1.7337581 9.727485e-38 -0.00031719718 -9.165424e-08 -1.7846187e-05 -3.785578e-09
-0.55746657 -8.8029795e-10 -0.0015282636 -0.11262804 -6.799225e-07 -2.1160255e-07 1.0876434 1.6216594
1.0307332 0.0038475576 1.300505 -8.205967e-06 1.1389114 -0.10344375 0.76355964 1.1588578
-7.016463e-20 4.8089295e-32 -3.8941704e-07 -0.05840461 -1.257247e-07 -1.1271699e-06 -0.00014856213 -0.0017061275
-2.465229e-07 -0.054021332 -6.427553e-07 -0.0005104205 0.00027109712 0.0010145176 0.3660678 0.18766786
1.980934 4.2394667 1.3851922e-22 -0.47462815 0.23751228 0.86985385 1.8109801 0.026667245
-0.0003955643 -1.0345018e-06 -0.0005206951 -0.02821572 -7.513971e-11 1.2038323 -0.000563288 -0.06258564
-1.1287765e-06 -3.072264e-06 0.9319868 0.1913589 1.8906534 0.0013116612 -2.4928163e-15 -8.121446e-24
-9.923723e-19 -7.178731e-12 1.1012314e-22 -0.12319937 -0.013126747 3.401096 -1.0198646e-06 -4.9431687e-06
00000000: 6825 e4bd c1d0 7d3f fe33 4d3f bc30 553f
00000010: 7fb5 3a40 ac0c 7340 aa74 6f3f 2f85 73bf
00000020: 533b 0f3f 4dc2 0b40 512f b83f 7df8 1e40
00000030: d6dd 7cb9 efeb ccbc 55d0 0bbb 1c9c 50bd
00000040: f145 51be 7062 6239 ff5d 13bb bbfd 973e
00000050: 1f0a ad38 e16a c2bd 70bf c3bd b7c9 4c3f
00000060: 6f03 713f 2818 8f3f c1a8 db3f 5f4e 5e40
00000070: c75d 043f 05e5 77bf 59cb 8f3e b5a8 ba3f
00000080: b970 f23f c796 e73f 945f afb9 6d5e 4dbe
00000090: 0620 62ba e95c b1b1 7422 c1af 9c58 12ba
000000a0: 430c 15bb 6ae5 dbbc 4bf4 cfb9 87cc 33b2
000000b0: 569d 95be 9265 d93f 4dd1 453f e23f 3e3f
000000c0: 4000 d13f b042 c33f 9252 7d3e eaeb 66bf
000000d0: e3de dc3d 3088 473f 74c7 853f e457 2540
000000e0: 4e32 663f ba6f 0bbe 374a a039 65ba 99bd
000000f0: 45fb a7b1 d39f 7a38 c534 d9ba e72a 89bd
00000100: f7ab d7b8 ff10 f6ba 4c41 743d 004f 323f
00000110: d040 633f 3a64 363f 3c5f 4a40 44f4 9340
00000120: 8ee6 15bd f748 67bf cff8 833f bdc3 fb3f
00000130: e6d1 fc3e 64c9 c43f c6d8 c338 67d6 fabd
00000140: 8440 2fba f222 c5bd b18d 87b4 4e37 d039
00000150: 2f4a c1ba f931 0fb9 df3c 803e 65f3 b2b4
00000160: ffb2 41b8 708c 213f a706 753f 92b9 4a3f
00000170: 95ec b33f ae55 8d40 0b8d 053f 2602 80bf
00000180: 825a b73f 2cdf 6a3f cf62 cd3f 6f11 6340
00000190: 16b0 7ab9 deea 57b4 583d 04b9 d564 b7ba
000001a0: d1ad 7fb4 5de0 d03e 521d cdb7 f3fa fcba
000001b0: ea10 7dba f9a9 7eb0 bb4a 933e e5bb 6e3f
000001c0: 6456 6a3f aea8 bf3f 195e 1c40 a4ff 8640
000001d0: 7a42 c33e af6c 75bf 71f8 3f3f 233d 3c3f
000001e0: 4303 0e40 2a76 bd83 dbde 23b5 9821 63b5
000001f0: 3811 e2ba 1802 99b3 8f03 14bf fb9d 2bba
00000200: 9c9d 8db3 7810 d6bd f2b8 d1b4 449e e7b5
00000210: 74eb af40 7456 463a d94a ed3e 15e7 eb3e
00000220: 799e c83f 3840 8240 8d99 2c3e 8509 52c0
00000230: 2128 a93c e325 863f f332 cf3e 1879 1540
00000240: 6b58 15b9 37cd 25be ecbb 95ba 3e45 bfb1
00000250: ccb3 89be 8901 abb6 1d6d 58b7 c259 a7bc
00000260: 4775 3fbb f5b6 04b6 f694 1e3f a20e 323f
00000270: 7119 5e3f 7553 b93e a603 543e 9cca 5240
00000280: 15e7 563f 088c babf 957c d89b c201 733f
00000290: dbd4 aa3e 4024 2140 1957 8cba adda ddb8
000002a0: e3c4 3cb9 eb84 62b5 b644 91be 39fc a8b8
000002b0: 9bfa feb3 7c48 85ba c8a9 17ba 5ad4 a3b2
000002c0: 62c9 773e 157e d13f fa39 c73f e996 e83f
000002d0: 7c10 1440 c4dd 6c40 1de9 9785 f682 96bf
000002e0: 53e3 5b3f 5d78 823f c9eb dd3f 5767 0402
000002f0: 7c4d a6b9 74d3 c4b3 65b4 95b7 4c12 82b1
00000300: 21b6 0ebf 76f9 71b0 0450 c8ba 88a9 e6bd
00000310: eb83 36b5 de34 63b4 e637 8b3f 8992 cf3f
00000320: 11ef 833f 4e27 7c3b f376 a63f 5cac 09b7
00000330: d9c7 913f 51da d3bd a578 433f 7455 943f
00000340: ebab a59f a3b1 790b 1211 d1b4 ac39 6fbd
00000350: f1fe 06b4 4349 97b5 58c7 1bb9 24a0 dfba
00000360: d959 84b4 7945 5dbd cf89 2cb5 bdcd 05ba
00000370: 0a22 8e39 90f9 843a 3d6d bb3e 012c 403e
00000380: 3f8f fd3f b6a9 8740 9f75 271b 7602 f3be
00000390: 6b36 733e beae 5e3f 32ce e73f 4475 da3c
000003a0: be63 cfb9 36d9 8ab5 427f 08ba a724 e7bc
000003b0: e53b a5ae 2d17 9a3f 9ea9 13ba e62c 80bd
000003c0: 7780 97b5 182d 4eb6 b096 6e3f 96f3 433e
000003d0: ee00 f23f 0cec ab3a 58a0 33a7 7417 1d99
000003e0: c472 92a1 4394 fcac 7621 051b f44f fcbd
000003f0: 9111 57bc 8fab 5940 48e2 88b5 7fdd a5b6

weight f4 [22]
1.0 1.0 1.0 1.0 1.0 1.0 1.0 1.0
1.0 1.0 1.0 1.0 1.0 1.0 1.0 1.0
1.0 1.0 1.0 1.0 1.0 1.0
00000000: 0000 803f 0000 803f 0000 803f 0000 803f
00000010: 0000 803f 0000 803f 0000 803f 0000 803f
00000020: 0000 803f 0000 803f 0000 803f 0000 803f
00000030: 0000 803f 0000 803f 0000 803f 0000 803f
00000040: 0000 803f 0000 803f 0000 803f 0000 803f
00000050: 0000 803f 0000 803f

bias f4 [22]
0.0 0.0 0.0 0.0 0.0 0.0 0.0 0.0
0.0 0.0 0.0 0.0 0.0 0.0 0.0 0.0
0.0 0.0 0.0 0.0 0.0 0.0
00000000: 0000 0000 0000 0000 0000 0000 0000 0000
00000010: 0000 0000 0000 0000 0000 0000 0000 0000
00000020: 0000 0000 0000 0000 0000 0000 0000 0000
00000030: 0000 0000 0000 0000 0000 0000 0000 0000
00000040: 0000 0000 0000 0000 0000 0000 0000 0000
00000050: 0000 0000 0000 0000

N f4 [4, 14, 22]
682.0 0.0 0.0 0.0 0.0 0.0 0.0 0.0
0.0 0.0 0.0 0.0 0.0 0.0 0.0 0.0
0.0 0.0 0.0 0.0 0.0 0.0 610.0 0.0
0.0 0.0 0.0 0.0 0.0 0.0 0.0 0.0
0.0 0.0 0.0 0.0 0.0 0.0 0.0 0.0
0.0 0.0 0.0 0.0 527.0 0.0 0.0 0.0
0.0 0.0 0.0 0.0 0.0 0.0 0.0 0.0
0.0 0.0 0.0 0.0 0.0 0.0 0.0 0.0
0.0 0.0 506.0 0.0 0.0 0.0 0.0 0.0
0.0 0.0 0.0 0.0 0.0 0.0 0.0 0.0
0.0 0.0 0.0 0.0 0.0 0.0 0.0 0.0
409.0 0.0 0.0 0.0 0.0 0.0 0.0 0.0
0.0 0.0 0.0 0.0 0.0 0.0 0.0 0.0
0.0 0.0 0.0 0.0 0.0 0.0 374.0 0.0
0.0 0.0 0.0 0.0 0.0 0.0 0.0 0.0
0.0 0.0 0.0 0.0 0.0 0.0 0.0 0.0
0.0 0.0 0.0 0.0 289.0 0.0 0.0 0.0
0.0 0.0 0.0 0.0 0.0 0.0 0.0 0.0
0.0 0.0 0.0 0.0 0.0 0.0 0.0 0.0
0.0 0.0 282.0 0.0 0.0 0.0 0.0 0.0
0.0 0.0 0.0 0.0 0.0 0.0 0.0 0.0
0.0 0.0 0.0 0.0 0.0 0.0 0.0 0.0
195.0 0.0 0.0 0.0 0.0 0.0 0.0 0.0
0.0 0.0 0.0 0.0 0.0 0.0 0.0 0.0
0.0 0.0 0.0 0.0 0.0 0.0 178.0 0.0
0.0 0.0 0.0 0.0 0.0 0.0 0.0 0.0
0.0 0.0 0.0 0.0 0.0 0.0 0.0 0.0
0.0 0.0 0.0 0.0 112.0 0.0 0.0 0.0
0.0 0.0 0.0 0.0 0.0 0.0 0.0 0.0
0.0 0.0 0.0 0.0 0.0 0.0 0.0 0.0
0.0 0.0 35.0 0.0 0.0 0.0 0.0 0.0
0.0 0.0 0.0 0.0 0.0 0.0 0.0 0.0
00000000: 0080 2a44 0000 0000 0000 0000 0000 0000
00000010: 0000 0000 0000 0000 0000 0000 0000 0000
00000020: 0000 0000 0000 0000 0000 0000 0000 0000
00000030: 0000 0000 0000 0000 0000 0000 0000 0000
00000040: 0000 0000 0000 0000 0000 0000 0000 0000
00000050: 0000 0000 0000 0000 0080 1844 0000 0000
00000060: 0000 0000 0000 0000 0000 0000 0000 0000
00000070: 0000 0000 0000 0000 0000 0000 0000 0000
00000080: 0000 0000 0000 0000 0000 0000 0000 0000
00000090: 0000 0000 0000 0000 0000 0000 0000 0000
000000a0: 0000 0000 0000 0000 0000 0000 0000 0000
000000b0: 00c0 0344 0000 0000 0000 0000 0000 0000
000000c0: 0000 0000 0000 0000 0000 0000 0000 0000
000000d0: 0000 0000 0000 0000 0000 0000 0000 0000
000000e0: 0000 0000 0000 0000 0000 0000 0000 0000
000000f0: 0000 0000 0000 0000 0000 0000 0000 0000
00000100: 0000 0000 0000 0000 0000 fd43 0000 0000
00000110: 0000 0000 0000 0000 0000 0000 0000 0000
00000120: 0000 0000 0000 0000 0000 0000 0000 0000
00000130: 0000 0000 0000 0000 0000 0000 0000 0000
00000140: 0000 0000 0000 0000 0000 0000 0000 0000
00000150: 0000 0000 0000 0000 0000 0000 0000 0000
00000160: 0080 cc43 0000 0000 0000 0000 0000 0000
00000170: 0000 0000 0000 0000 0000 0000 0000 0000
00000180: 0000 0000 0000 0000 0000 0000 0000 0000
00000190: 0000 0000 0000 0000 0000 0000 0000 0000
000001a0: 0000 0000 0000 0000 0000 0000 0000 0000
000001b0: 0000 0000 0000 0000 0000 bb43 0000 0000
000001c0: 0000 0000 0000 0000 0000 0000 0000 0000
000001d0: 0000 0000 0000 0000 0000 0000 0000 0000
000001e0: 0000 0000 0000 0000 0000 0000 0000 0000
000001f0: 0000 0000 0000 0000 0000 0000 0000 0000
00000200: 0000 0000 0000 0000 0000 0000 0000 0000
00000210: 0080 9043 0000 0000 0000 0000 0000 0000
00000220: 0000 0000 0000 0000 0000 0000 0000 0000
00000230: 0000 0000 0000 0000 0000 0000 0000 0000
00000240: 0000 0000 0000 0000 0000 0000 0000 0000
00000250: 0000 0000 0000 0000 0000 0000 0000 0000
00000260: 0000 0000 0000 0000 0000 8d43 0000 0000
00000270: 0000 0000 0000 0000 0000 0000 0000 0000
00000280: 0000 0000 0000 0000 0000 0000 0000 0000
00000290: 0000 0000 0000 0000 0000 0000 0000 0000
000002a0: 0000 0000 0000 0000 0000 0000 0000 0000
000002b0: 0000 0000 0000 0000 0000 0000 0000 0000
000002c0: 0000 4343 0000 0000 0000 0000 0000 0000
000002d0: 0000 0000 0000 0000 0000 0000 0000 0000
000002e0: 0000 0000 0000 0000 0000 0000 0000 0000
000002f0: 0000 0000 0000 0000 0000 0000 0000 0000
00000300: 0000 0000 0000 0000 0000 0000 0000 0000
00000310: 0000 0000 0000 0000 0000 3243 0000 0000
00000320: 0000 0000 0000 0000 0000 0000 0000 0000
00000330: 0000 0000 0000 0000 0000 0000 0000 0000
00000340: 0000 0000 0000 0000 0000 0000 0000 0000
00000350: 0000 0000 0000 0000 0000 0000 0000 0000
00000360: 0000 0000 0000 0000 0000 0000 0000 0000
00000370: 0000 e042 0000 0000 0000 0000 0000 0000
00000380: 0000 0000 0000 0000 0000 0000 0000 0000
00000390: 0000 0000 0000 0000 0000 0000 0000 0000
000003a0: 0000 0000 0000 0000 0000 0000 0000 0000
000003b0: 0000 0000 0000 0000 0000 0000 0000 0000
000003c0: 0000 0000 0000 0000 0000 0c42 0000 0000
000003d0: 0000 0000 0000 0000 0000 0000 0000 0000
000003e0: 0000 0000 0000 0000 0000 0000 0000 0000
000003f0: 0000 0000 0000 0000 0000 0000 0000 0000

exp_avg f4 [14, 22, 22]
0.0 0.50709903 0.0 0.0 0.0 0.0 0.0 0.0
0.0 0.0 0.0 0.0 0.0 0.0 0.0 0.0
0.0 0.0 0.0 0.0 0.0 0.0 0.0 0.0
0.40121874 0.017478423 0.012213513 0.0 0.0 0.01839656 0.0 0.0
0.0 0.0 0.0 0.0 0.0 0.0 0.0 0.0
0.0 0.0 0.0 0.0 0.0 0.0 0.0 0.0
0.0 0.0 -0.0046765404 0.0 0.0 -0.09878664 0.0 0.0
0.0 0.0 0.0 0.0 0.0 0.0 0.0 0.0
0.0 0.0 0.0 0.0 0.0 0.0 0.0 0.0
0.0 0.0 0.0 0.0 -0.014900508 0.0 0.0 0.0
0.0 0.0 0.0 0.0 0.0 0.0 0.0 0.0
0.0 0.0 0.0 0.0 0.0 0.0028123895 0.0 0.0
-0.0057991203 0.0 0.0 0.0 0.0 0.0 0.0 0.0
0.0 -0.0036002863 0.0 0.0 0.0 0.0 0.0 0.0
0.0 0.0 0.0 0.0 0.0 0.0 0.0 0.0
0.0 0.0 0.0004024703 0.0 0.00038971836 0.0 0.0 0.0
0.0 0.0 0.0 0.0 0.0 0.0 0.0 0.0
0.0 0.0 0.0 0.0 0.0 0.0 0.0 0.0
0.0 0.00053625985 0.0 0.0 0.0 0.0 0.0 0.0240356
0.0 0.0 0.0 0.0 0.0 0.0 0.0 0.0
0.0 0.0 0.0 0.0 0.0 0.0 0.0 0.0
0.0 0.0 -0.00017090619 0.0 0.0 0.0 0.0 1.0907325e-05
0.0 0.0 0.0 0.0 0.0 0.0 0.0 0.0
0.0 0.0 0.0 0.0 0.0 0.0 0.0 0.00014479806
0.0 0.0 0.00022967428 0.0 0.0 0.0 0.0 0.0
0.0 0.0 0.0 0.0 0.0 0.0 0.0 0.0
0.0 0.0 0.0 0.0 0.0 0.0 0.0 0.0
0.0 0.26300794 0.0 0.0 0.0 0.0 0.0 0.0
0.0 0.0 0.0 0.0 0.0 0.0 0.0 -0.002715546
0.0 0.0 0.0 0.0 0.0 0.0 0.0 0.0
0.0 0.0 0.0 0.0 0.0 0.0 0.0 0.0
0.0 0.0 0.0 0.0 0.0 0.0 0.0 0.0
00000000: 0000 0000 3ed1 013f 0000 0000 0000 0000
00000010: 0000 0000 0000 0000 0000 0000 0000 0000
00000020: 0000 0000 0000 0000 0000 0000 0000 0000
00000030: 0000 0000 0000 0000 0000 0000 0000 0000
00000040: 0000 0000 0000 0000 0000 0000 0000 0000
00000050: 0000 0000 0000 0000 0000 0000 0000 0000
00000060: 8b6c cd3e e92e 8f3c 301b 483c 0000 0000
00000070: 0000 0000 62b4 963c 0000 0000 0000 0000
00000080: 0000 0000 0000 0000 0000 0000 0000 0000
00000090: 0000 0000 0000 0000 0000 0000 0000 0000
000000a0: 0000 0000 0000 0000 0000 0000 0000 0000
000000b0: 0000 0000 0000 0000 0000 0000 0000 0000
000000c0: 0000 0000 0000 0000 aa3d 99bb 0000 0000
000000d0: 0000 0000 a650 cabd 0000 0000 0000 0000
000000e0: 0000 0000 0000 0000 0000 0000 0000 0000
000000f0: 0000 0000 0000 0000 0000 0000 0000 0000
00000100: 0000 0000 0000 0000 0000 0000 0000 0000
00000110: 0000 0000 0000 0000 0000 0000 0000 0000
00000120: 0000 0000 0000 0000 0000 0000 0000 0000
00000130: 4321 74bc 0000 0000 0000 0000 0000 0000
00000140: 0000 0000 0000 0000 0000 0000 0000 0000
00000150: 0000 0000 0000 0000 0000 0000 0000 0000
00000160: 0000 0000 0000 0000 0000 0000 0000 0000
00000170: 0000 0000 1150 383b 0000 0000 0000 0000
00000180: 8c06 bebb 0000 0000 0000 0000 0000 0000
00000190: 0000 0000 0000 0000 0000 0000 0000 0000
000001a0: 0000 0000 c8f2 6bbb 0000 0000 0000 0000
000001b0: 0000 0000 0000 0000 0000 0000 0000 0000
000001c0: 0000 0000 0000 0000 0000 0000 0000 0000
000001d0: 0000 0000 0000 0000 0000 0000 0000 0000
000001e0: 0000 0000 0000 0000 a602 d339 0000 0000
000001f0: 1d53 cc39 0000 0000 0000 0000 0000 0000
00000200: 0000 0000 0000 0000 0000 0000 0000 0000
00000210: 0000 0000 0000 0000 0000 0000 0000 0000
00000220: 0000 0000 0000 0000 0000 0000 0000 0000
00000230: 0000 0000 0000 0000 0000 0000 0000 0000
00000240: 0000 0000 ca93 0c3a 0000 0000 0000 0000
00000250: 0000 0000 0000 0000 0000 0000 4ee6 c43c
00000260: 0000 0000 0000 0000 0000 0000 0000 0000
00000270: 0000 0000 0000 0000 0000 0000 0000 0000
00000280: 0000 0000 0000 0000 0000 0000 0000 0000
00000290: 0000 0000 0000 0000 0000 0000 0000 0000
000002a0: 0000 0000 0000 0000 4835 33b9 0000 0000
000002b0: 0000 0000 0000 0000 0000 0000 9bfe 3637
000002c0: 0000 0000 0000 0000 0000 0000 0000 0000
000002d0: 0000 0000 0000 0000 0000 0000 0000 0000
000002e0: 0000 0000 0000 0000 0000 0000 0000 0000
000002f0: 0000 0000 0000 0000 0000 0000 efd4 1739
00000300: 0000 0000 0000 0000 b8d4 7039 0000 0000
00000310: 0000 0000 0000 0000 0000 0000 0000 0000
00000320: 0000 0000 0000 0000 0000 0000 0000 0000
00000330: 0000 0000 0000 0000 0000 0000 0000 0000
00000340: 0000 0000 0000 0000 0000 0000 0000 0000
00000350: 0000 0000 0000 0000 0000 0000 0000 0000
00000360: 0000 0000 faa8 863e 0000 0000 0000 0000
00000370: 0000 0000 0000 0000 0000 0000 0000 0000
00000380: 0000 0000 0000 0000 0000 0000 0000 0000
00000390: 0000 0000 0000 0000 0000 0000 4df7 31bb
000003a0: 0000 0000 0000 0000 0000 0000 0000 0000
000003b0: 0000 0000 0000 0000 0000 0000 0000 0000
000003c0: 0000 0000 0000 0000 0000 0000 0000 0000
000003d0: 0000 0000 0000 0000 0000 0000 0000 0000
000003e0: 0000 0000 0000 0000 0000 0000 0000 0000
000003f0: 0000 0000 0000 0000 0000 0000 0000 0000

exp_avg_sq f4 [14, 22, 22]
0.0 664.79016 0.0 0.0 0.0 0.0 0.0 0.0
0.0 0.0 0.0 0.0 0.0 0.0 0.0 0.0
0.0 0.0 0.0 0.0 0.0 0.0 0.0 0.0
339.15668 4.5908985 0.05032479 0.0 0.0 0.3692259 0.0 0.0
0.0 0.0 0.0 0.0 0.0 0.0 0.0 0.0
0.0 0.0 0.0 0.0 0.0 0.0 0.0 0.0
0.0 0.0 1.0320109 0.0 0.0 58.38759 0.0 0.0
0.0 0.0 0.0 0.0 0.0 0.0 0.0 0.0
0.0 0.0 0.0 0.0 0.0 0.0 0.0 0.0
0.0 0.0 0.0 0.0 7.764589 0.0 0.0 0.0
0.0 0.0 0.0 0.0 0.0 0.0 0.0 0.0
0.0 0.0 0.0 0.0 0.0 0.0016316207 0.0 0.0
0.0014480604 0.0 0.0 0.0 0.0 0.0 0.0 0.0
0.0 0.00028531862 0.0 0.0 0.0 0.0 0.0 0.0
0.0 0.0 0.0 0.0 0.0 0.0 0.0 0.0
0.0 0.0 0.00054342375 0.0 8.397692e-05 0.0 0.0 0.0
0.0 0.0 0.0 0.0 0.0 0.0 0.0 0.0
0.0 0.0 0.0 0.0 0.0 0.0 0.0 0.0
0.0 0.0019614152 0.0 0.0 0.0 0.0 0.0 0.39161843
0.0 0.0 0.0 0.0 0.0 0.0 0.0 0.0
0.0 0.0 0.0 0.0 0.0 0.0 0.0 0.0
0.0 0.0 0.0044966973 0.0 0.0 0.0 0.0 0.0007046154
0.0 0.0 0.0 0.0 0.0 0.0 0.0 0.0
0.0 0.0 0.0 0.0 0.0 0.0 0.0 1.9087143e-05
0.0 0.0 3.0248677e-05 0.0 0.0 0.0 0.0 0.0
0.0 0.0 0.0 0.0 0.0 0.0 0.0 0.0
0.0 0.0 0.0 0.0 0.0 0.0 0.0 0.0
0.0 3.9966288 0.0 0.0 0.0 0.0 0.0 0.0
0.0 0.0 0.0 0.0 0.0 0.0 0.0 0.06419706
0.0 0.0 0.0 0.0 0.0 0.0 0.0 0.0
0.0 0.0 0.0 0.0 0.0 0.0 0.0 0.0
0.0 0.0 0.0 0.0 0.0 0.0 0.0 0.0
00000000: 0000 0000 9232 2644 0000 0000 0000 0000
00000010: 0000 0000 0000 0000 0000 0000 0000 0000
00000020: 0000 0000 0000 0000 0000 0000 0000 0000
00000030: 0000 0000 0000 0000 0000 0000 0000 0000
00000040: 0000 0000 0000 0000 0000 0000 0000 0000
00000050: 0000 0000 0000 0000 0000 0000 0000 0000
00000060: 0e94 a943 a4e8 9240 5e21 4e3d 0000 0000
00000070: 0000 0000 2d0b bd3e 0000 0000 0000 0000
00000080: 0000 0000 0000 0000 0000 0000 0000 0000
00000090: 0000 0000 0000 0000 0000 0000 0000 0000
000000a0: 0000 0000 0000 0000 0000 0000 0000 0000
000000b0: 0000 0000 0000 0000 0000 0000 0000 0000
000000c0: 0000 0000 0000 0000 ef18 843f 0000 0000
000000d0: 0000 0000 e48c 6942 0000 0000 0000 0000
000000e0: 0000 0000 0000 0000 0000 0000 0000 0000
000000f0: 0000 0000 0000 0000 0000 0000 0000 0000
00000100: 0000 0000 0000 0000 0000 0000 0000 0000
00000110: 0000 0000 0000 0000 0000 0000 0000 0000
00000120: 0000 0000 0000 0000 0000 0000 0000 0000
00000130: 8377 f840 0000 0000 0000 0000 0000 0000
00000140: 0000 0000 0000 0000 0000 0000 0000 0000
00000150: 0000 0000 0000 0000 0000 0000 0000 0000
00000160: 0000 0000 0000 0000 0000 0000 0000 0000
00000170: 0000 0000 1bdc d53a 0000 0000 0000 0000
00000180: d8cc bd3a 0000 0000 0000 0000 0000 0000
00000190: 0000 0000 0000 0000 0000 0000 0000 0000
000001a0: 0000 0000 d196 9539 0000 0000 0000 0000
000001b0: 0000 0000 0000 0000 0000 0000 0000 0000
000001c0: 0000 0000 0000 0000 0000 0000 0000 0000
000001d0: 0000 0000 0000 0000 0000 0000 0000 0000
000001e0: 0000 0000 0000 0000 8d74 0e3a 0000 0000
000001f0: c41c b038 0000 0000 0000 0000 0000 0000
00000200: 0000 0000 0000 0000 0000 0000 0000 0000
00000210: 0000 0000 0000 0000 0000 0000 0000 0000
00000220: 0000 0000 0000 0000 0000 0000 0000 0000
00000230: 0000 0000 0000 0000 0000 0000 0000 0000
00000240: 0000 0000 168b 003b 0000 0000 0000 0000
00000250: 0000 0000 0000 0000 0000 0000 3682 c83e
00000260: 0000 0000 0000 0000 0000 0000 0000 0000
00000270: 0000 0000 0000 0000 0000 0000 0000 0000
00000280: 0000 0000 0000 0000 0000 0000 0000 0000
00000290: 0000 0000 0000 0000 0000 0000 0000 0000
000002a0: 0000 0000 0000 0000 0859 933b 0000 0000
000002b0: 0000 0000 0000 0000 0000 0000 f0b5 383a
000002c0: 0000 0000 0000 0000 0000 0000 0000 0000
000002d0: 0000 0000 0000 0000 0000 0000 0000 0000
000002e0: 0000 0000 0000 0000 0000 0000 0000 0000
000002f0: 0000 0000 0000 0000 0000 0000 541d a037
00000300: 0000 0000 0000 0000 8abe fd37 0000 0000
00000310: 0000 0000 0000 0000 0000 0000 0000 0000
00000320: 0000 0000 0000 0000 0000 0000 0000 0000
00000330: 0000 0000 0000 0000 0000 0000 0000 0000
00000340: 0000 0000 0000 0000 0000 0000 0000 0000
00000350: 0000 0000 0000 0000 0000 0000 0000 0000
00000360: 0000 0000 c4c8 7f40 0000 0000 0000 0000
00000370: 0000 0000 0000 0000 0000 0000 0000 0000
00000380: 0000 0000 0000 0000 0000 0000 0000 0000
00000390: 0000 0000 0000 0000 0000 0000 c079 833d
000003a0: 0000 0000 0000 0000 0000 0000 0000 0000
000003b0: 0000 0000 0000 0000 0000 0000 0000 0000
000003c0: 0000 0000 0000 0000 0000 0000 0000 0000
000003d0: 0000 0000 0000 0000 0000 0000 0000 0000
000003e0: 0000 0000 0000 0000 0000 0000 0000 0000
000003f0: 0000 0000 0000 0000 0000 0000 0000 0000

max_exp_avg_sq f4 [14, 22, 22]
0.0 2925.594 0.0 0.0 0.0 0.0 0.0 0.0
0.0 0.0 0.0 0.0 0.0 0.0 0.0 0.0
0.0 0.0 0.0 0.0 0.0 0.0 0.0 0.0
1488.2329 19.631021 0.20086686 0.0 0.0 1.5287384 0.0 0.0
0.0 0.0 0.0 0.0 0.0 0.0 0.0 0.0
0.0 0.0 0.0 0.0 0.0 0.0 0.0 0.0
0.0 0.0 4.4520926 0.0 0.0 254.9113 0.0 0.0
0.0 0.0 0.0 0.0 0.0 0.0 0.0 0.0
0.0 0.0 0.0 0.0 0.0 0.0 0.0 0.0
0.0 0.0 0.0 0.0 34.012474 0.0 0.0 0.0
0.0 0.0 0.0 0.0 0.0 0.0 0.0 0.0
0.0 0.0 0.0 0.0 0.0 0.0067182127 0.0 0.0
0.0062097367 0.0 0.0 0.0 0.0 0.0 0.0 0.0
0.0 0.0011649868 0.0 0.0 0.0 0.0 0.0 0.0
0.0 0.0 0.0 0.0 0.0 0.0 0.0 0.0
0.0 0.0 0.0020723986 0.0 0.00032679056 0.0 0.0 0.0
0.0 0.0 0.0 0.0 0.0 0.0 0.0 0.0
0.0 0.0 0.0 0.0 0.0 0.0 0.0 0.0
0.0 0.0081992 0.0 0.0 0.0 0.0 0.0 1.7180271
0.0 0.0 0.0 0.0 0.0 0.0 0.0 0.0
0.0 0.0 0.0 0.0 0.0 0.0 0.0 0.0
0.0 0.0 0.018475834 0.0 0.0 0.0 0.0 0.0029641632
0.0 0.0 0.0 0.0 0.0 0.0 0.0 0.0
0.0 0.0 0.0 0.0 0.0 0.0 0.0 7.881309e-05
0.0 0.0 0.00012461004 0.0 0.0 0.0 0.0 0.0
0.0 0.0 0.0 0.0 0.0 0.0 0.0 0.0
0.0 0.0 0.0 0.0 0.0 0.0 0.0 0.0
0.0 16.807022 0.0 0.0 0.0 0.0 0.0 0.0
0.0 0.0 0.0 0.0 0.0 0.0 0.0 0.24786611
0.0 0.0 0.0 0.0 0.0 0.0 0.0 0.0
0.0 0.0 0.0 0.0 0.0 0.0 0.0 0.0
0.0 0.0 0.0 0.0 0.0 0.0 0.0 0.0
00000000: 0000 0000 81d9 3645 0000 0000 0000 0000
00000010: 0000 0000 0000 0000 0000 0000 0000 0000
00000020: 0000 0000 0000 0000 0000 0000 0000 0000
00000030: 0000 0000 0000 0000 0000 0000 0000 0000
00000040: 0000 0000 0000 0000 0000 0000 0000 0000
00000050: 0000 0000 0000 0000 0000 0000 0000 0000
00000060: 7407 ba44 550c 9d41 0bb0 4d3e 0000 0000
00000070: 0000 0000 b3ad c33f 0000 0000 0000 0000
00000080: 0000 0000 0000 0000 0000 0000 0000 0000
00000090: 0000 0000 0000 0000 0000 0000 0000 0000
000000a0: 0000 0000 0000 0000 0000 0000 0000 0000
000000b0: 0000 0000 0000 0000 0000 0000 0000 0000
000000c0: 0000 0000 0000 0000 8b77 8e40 0000 0000
000000d0: 0000 0000 4be9 7e43 0000 0000 0000 0000
000000e0: 0000 0000 0000 0000 0000 0000 0000 0000
000000f0: 0000 0000 0000 0000 0000 0000 0000 0000
00000100: 0000 0000 0000 0000 0000 0000 0000 0000
00000110: 0000 0000 0000 0000 0000 0000 0000 0000
00000120: 0000 0000 0000 0000 0000 0000 0000 0000
00000130: c60c 0842 0000 0000 0000 0000 0000 0000
00000140: 0000 0000 0000 0000 0000 0000 0000 0000
00000150: 0000 0000 0000 0000 0000 0000 0000 0000
00000160: 0000 0000 0000 0000 0000 0000 0000 0000
00000170: 0000 0000 7424 dc3b 0000 0000 0000 0000
00000180: 0c7b cb3b 0000 0000 0000 0000 0000 0000
00000190: 0000 0000 0000 0000 0000 0000 0000 0000
000001a0: 0000 0000 78b2 983a 0000 0000 0000 0000
000001b0: 0000 0000 0000 0000 0000 0000 0000 0000
000001c0: 0000 0000 0000 0000 0000 0000 0000 0000
000001d0: 0000 0000 0000 0000 0000 0000 0000 0000
000001e0: 0000 0000 0000 0000 14d1 073b 0000 0000
000001f0: 1655 ab39 0000 0000 0000 0000 0000 0000
00000200: 0000 0000 0000 0000 0000 0000 0000 0000
00000210: 0000 0000 0000 0000 0000 0000 0000 0000
00000220: 0000 0000 0000 0000 0000 0000 0000 0000
00000230: 0000 0000 0000 0000 0000 0000 0000 0000
00000240: 0000 0000 f055 063c 0000 0000 0000 0000
00000250: 0000 0000 0000 0000 0000 0000 50e8 db3f
00000260: 0000 0000 0000 0000 0000 0000 0000 0000
00000270: 0000 0000 0000 0000 0000 0000 0000 0000
00000280: 0000 0000 0000 0000 0000 0000 0000 0000
00000290: 0000 0000 0000 0000 0000 0000 0000 0000
000002a0: 0000 0000 0000 0000 a25a 973c 0000 0000
000002b0: 0000 0000 0000 0000 0000 0000 6842 423b
000002c0: 0000 0000 0000 0000 0000 0000 0000 0000
000002d0: 0000 0000 0000 0000 0000 0000 0000 0000
000002e0: 0000 0000 0000 0000 0000 0000 0000 0000
000002f0: 0000 0000 0000 0000 0000 0000 7548 a538
00000300: 0000 0000 0000 0000 c1a9 0239 0000 0000
00000310: 0000 0000 0000 0000 0000 0000 0000 0000
00000320: 0000 0000 0000 0000 0000 0000 0000 0000
00000330: 0000 0000 0000 0000 0000 0000 0000 0000
00000340: 0000 0000 0000 0000 0000 0000 0000 0000
00000350: 0000 0000 0000 0000 0000 0000 0000 0000
00000360: 0000 0000 c874 8641 0000 0000 0000 0000
00000370: 0000 0000 0000 0000 0000 0000 0000 0000
00000380: 0000 0000 0000 0000 0000 0000 0000 0000
00000390: 0000 0000 0000 0000 0000 0000 9dd0 7d3e
000003a0: 0000 0000 0000 0000 0000 0000 0000 0000
000003b0: 0000 0000 0000 0000 0000 0000 0000 0000
000003c0: 0000 0000 0000 0000 0000 0000 0000 0000
000003d0: 0000 0000 0000 0000 0000 0000 0000 0000
000003e0: 0000 0000 0000 0000 0000 0000 0000 0000
000003f0: 0000 0000 0000 0000 0000 0000 0000 0000

exp_avg f4 [14, 22, 1]
7.3436154e-06 -0.1737342 5.092703e-05 -0.06691071 -0.43780118 -0.05455448 0.032208927 -0.0935255
-0.04547615 -0.38163382 0.026080254 -0.015985558 0.017058892 0.011571433 -0.018189842 0.005150056
-0.04713619 -0.11680695 0.025459703 0.23393346 -0.059758432 -0.0016555348 0.003276928 -0.08724356
-0.02161051 -0.08070303 -0.35318762 -0.05105646 0.028885132 -0.10111236 -0.02250242 -0.007542948
-0.04137392 -0.0023120688 0.029368684 0.012971047 -0.018927956 -2.579711e-09 -1.7148376e-10 -0.06408563
-0.0066073462 -0.0150774745 -0.0723568 -5.046341e-09 0.028465508 -0.18705973 -0.024768502 -0.064582
-0.4405725 -0.10994126 0.045947235 -0.102020554 -0.028417328 0.008098495 0.048752766 -0.035400257
0.028697282 0.018697066 0.026977047 0.0042582476 -2.4466809e-09 -0.05555979 -0.016244441 -0.019736575
-0.06914797 -0.0012697607 -0.040855747 -0.04935664 -0.03796391 -0.08759478 -0.43373078 -0.089121796
0.038804658 -0.102302246 -0.04506103 -0.011436646 0.09119254 -0.14002647 -0.086623915 0.0120564215
-0.040676046 0.005810369 -1.2013004e-07 -0.08228276 0.021295065 -0.07700223 -0.00056302233 -1.5825654e-07
-0.017391145 -0.07432688 -0.02980572 -0.06504835 -0.49197114 -0.054093488 0.04004285 -0.099931814
-0.009405406 0.011322482 0.029001435 -0.025687044 -0.014719897 -9.984708e-08 0.056872804 0.03830956
-1.13296146e-07 -0.052064683 0.043178134 0.0020537295 -0.062431995 -4.43878e-10 -0.0023014098 -0.06855535
-0.0250869 -0.07897844 -0.27151996 -0.027375208 0.029178193 -0.101190776 -0.022042038 0.011953164
0.027118335 -6.0052756e-37 -3.0587876e-07 -4.2381606e-07 -0.033699866 -3.544535e-08 -0.02711916 -0.068108305
-3.2826225e-08 -0.013327244 -1.9569124e-07 -8.5046685e-07 -0.020210933 -0.18378225 -0.031481683 -0.06941003
-0.3975724 -0.056974486 0.04188256 -0.04380623 -0.01760549 -7.496849e-05 0.04934069 -0.018735813
0.025276156 0.012529739 -0.03147934 -2.7044211e-09 -0.04699051 -2.4984897e-06 -0.007969751 -0.021228405
-0.036601078 -9.270785e-07 0.09961316 -0.1077782 -0.07024266 -0.07686499 -0.35568896 -0.027755247
0.010382528 -0.11023003 -1.7690472e-22 -0.007546617 0.04158631 -0.033376385 -0.030569995 0.06388265
0.03159356 -4.2268903e-07 -0.04513548 -0.09117179 -5.9028384e-08 0.020947782 -0.09382095 -9.130431e-09
-0.0007557923 -0.1941021 -0.022433912 -0.06393189 -0.25022373 -0.029778061 3.9400002e-35 -0.063419744
-0.022198351 0.008560359 0.016058406 1.6836246e-37 -0.00011054245 -4.5785338e-08 -2.5560128e-06 -1.841221e-09
-0.02691944 -4.243343e-10 -0.010431806 -0.0062106075 -3.4056853e-07 -1.05016106e-07 -0.074323684 -0.061388303
-0.0333024 -0.07872344 0.0011082102 1.6754317e-08 0.029188167 -0.08776693 -0.030461522 0.010973207
-3.364275e-20 4.382239e-32 -1.9507549e-07 0.018273447 -6.278283e-08 -5.6442633e-07 -0.0012900438 4.767902e-05
-1.232195e-07 -0.01363651 -3.2201652e-07 -0.012052873 0.06452142 -0.049754392 -0.028371591 -0.055331267
-0.3947716 -0.09367605 6.9069386e-23 -0.11895228 -0.022066418 0.013630106 0.035713214 0.00013549937
0.035123542 -5.175994e-07 -0.0154216625 0.007086719 -3.6783503e-11 -0.04300983 0.04920663 -0.014266938
-4.9146985e-07 -1.5154465e-06 -0.01037422 -0.06015604 -0.0681132 -0.047472157 -1.1548227e-15 -4.0841956e-24
-4.715036e-19 -3.2844782e-12 5.3897116e-23 0.009264773 0.02502528 -0.012583714 -5.107307e-07 -2.4259825e-06
00000000: 2d69 f636 61e7 31be 7b9a 5538 7b08 89bd
00000010: 7a27 e0be 8574 5fbd 82ed 033d 4c8a bfbd
00000020: 3345 3abd 8265 c3be 42a6 d53c 25f4 82bc
00000030: 17bf 8b3c 1c96 3d3c dd02 95bc cdc1 a83b
00000040: e111 41bd 7b38 efbd de90 d03c 418c 6f3e
00000050: 42c5 74bd 88fe d8ba bbc1 563b c0ac b2bd
00000060: 8608 b1bc a147 a5bd 02d5 b4be 9420 51bd
00000070: 83a0 ec3c ff13 cfbd ff56 b8bc d52a f7bb
00000080: b377 29bd 1486 17bb 9896 f03c 8484 543c
00000090: cd0e 9bbc c146 31b1 638c 3caf 543f 83bd
000000a0: 7082 d8bb 8307 77bc cd2f 94bd 1664 adb1
000000b0: 7f30 e93c 968c 3fbe 50e7 cabc 9143 84bd
000000c0: b892 e1be e228 e1bd 2b33 3c3d 27f0 d0bd
000000d0: 75cb e8bc 8daf 043c fbb0 473d dcff 10bd
000000e0: 9016 eb3c 972a 993c f8fe dc3c c588 8b3b
000000f0: 7722 28b1 aa92 63bd 1013 85bc 99ae a1bc
00000100: 739d 8dbd 196e a6ba 5b58 27bd 302a 4abd
00000110: 0b80 1bbd e464 b3bd f611 debe 7d85 b6bd
00000120: a2f1 1e3d d783 d1bd ea91 38bd c560 3bbc
00000130: 28c3 ba3d 1963 0fbe e167 b1bd 4c88 453c
00000140: ed9b 26bd e864 be3b 18fd 00b4 dd83 a8bd
00000150: fd72 ae3c 58b3 9dbd ca97 13ba 3aed 29b4
00000160: e077 8ebc b138 98bd 202b f4bc 1238 85bd
00000170: a4e3 fbbe 2291 5dbd f903 243d 0da9 ccbd
00000180: 2219 1abc ee81 393c 6b94 ed3c a36d d2bc
00000190: b92b 71bc 836b d6b3 75f3 683d 7cea 1c3d
000001a0: 374d f3b3 c741 55bd 8edb 303d dd97 063b
000001b0: b1b8 7fbd 4606 f4af 40d3 16bb bf66 8cbd
000001c0: 0b83 cdbc 73bf a1bd aa04 8bbe f941 e0bc
000001d0: 1b07 ef3c 1c3d cfbd 8191 b4bc 34d7 433c
000001e0: 4527 de3c 5459 4c83 a837 a4b4 d688 e3b4
000001f0: df08 0abd 933c 18b3 0029 debc 5e7c 8bbd
00000200: d1fc 0cb3 835a 5abc 331f 52b4 a34b 64b5
00000210: 6691 a5bc 6a31 3cbe f0f2 00bd d926 8ebd
00000220: 9c8e cbbe 145e 69bd 0c8d 2b3d 296e 33bd
00000230: 6339 90bc 6738 9db8 7719 4a3d d97b 99bc
00000240: f10f cf3c 8949 4d3c 7bf0 00bd aed8 39b1
00000250: 1f79 40bd baab 27b6 8f93 02bc 31e7 adbc
00000260: 03eb 15bd 59dc 78b5 fc01 cc3d d1ba dcbd
00000270: 62db 8fbd 646b 9dbd dd1c b6be f95e e3bc
00000280: 7b1b 2a3c 48c0 e1bd 5cdd 559b 9d49 f7bb
00000290: 6856 2a3d adb5 08bd ed6d fabc e8d4 823d
000002a0: 4068 013d f0ed e2b4 fbdf 38bd 47b8 babd
000002b0: 6586 7db3 af9a ab3c 3325 c0bd 0fdc 1cb2
000002c0: 5d20 46ba b3c2 46be 53c7 b7bc b9ee 82bd
000002d0: 531d 80be 1ff1 f3bc 817c 5106 36e2 81bd
000002e0: 51d9 b5bc bf40 0c3c eb8c 833c c129 6502
000002f0: 07d3 e7b8 83a5 44b3 f787 2bb6 340e fdb0
00000300: 2886 dcbc be47 e9af 2aea 2abc 5a82 cbbb
00000310: 62d7 b6b4 3785 e1b3 0437 98bd 4d72 7bbd
00000320: 1968 08bd c139 a1bd 5d41 913a 22eb 8f32
00000330: 061c ef3c 26bf b3bd 718a f9bc f7c8 333c
00000340: 97df 1e9f f389 630b f175 51b4 32b2 953c
00000350: 3ad3 86b3 1583 17b5 b016 a9ba f5fa 4738
00000360: 514e 04b4 ab6b 5fbc 9de1 acb4 6a79 45bc
00000370: ce23 843d 43cb 4bbd 8a6b e8bc 0aa3 62bd
00000380: 811f cabe 3bd9 bfbd e1ff a61a 419d f3bd
00000390: a2c4 b4bc cf50 5f3c 0548 123d d614 0e39
000003a0: b4dd 0f3d 29f1 0ab5 24ab 7cbc b537 e83b
000003b0: 8bc6 21ae 132b 30bd e48c 493d e0bf 69bc
000003c0: 8ded 03b5 5866 cbb5 a2f8 29bc 2e66 76bd
000003d0: ef7e 8bbd 2a72 42bd 706d a6a6 eaff 9d98
000003e0: ce29 0ba1 e61f 67ac b350 821a 46cb 173c
000003f0: d101 cd3c ec2b 4ebc 2519 09b5 10ce 22b6

exp_avg_sq f4 [14, 22, 1]
5.6040425 6.381991 3.667882 0.30507794 0.16588274 0.076667316 0.19462629 0.17147665
0.1648594 2.781645 0.19855498 0.07706197 0.10991525 0.07721442 0.024173759 0.0738131
0.16593634 0.24002372 0.08432069 0.5502866 0.096174836 0.07443655 3.4038477 4.0188437
0.17994864 2.5060618 0.18425386 0.079909705 0.07428426 0.16222061 0.07492979 0.17566955
0.89560294 0.07854534 0.12003971 0.07356167 0.026681049 0.0013742596 0.001728821 0.11733265
0.083120055 0.07350095 0.097834006 0.0020118116 1.70504 2.5971856 0.168136 0.18376006
2.5691361 1.8370317 0.16521229 0.16100873 0.17465124 0.16699375 0.176343 0.08331166
1.4745338 0.16461457 0.19473326 0.07464734 0.001357612 0.22974102 0.18820277 0.16399923
0.10188229 0.16482875 0.7206878 1.1407129 0.19009824 1.476344 0.16715285 0.16739814
0.16766182 0.15681468 0.1656648 0.1864594 1.1357156 0.7403669 0.18975954 0.07652314
0.097471826 0.07438946 0.002398303 0.23766033 0.17917302 0.2778471 0.38958845 0.0024772347
0.7834388 0.8959797 0.16540371 0.16719058 0.8365161 0.08881654 0.1645185 0.16176027
0.72825056 0.16449794 0.07520509 0.07354958 0.111638114 0.0015050954 0.08389178 0.20833503
0.002374376 0.12806875 0.37569526 0.17418304 0.09813518 0.0021154585 0.44568688 0.33967522
0.16677575 0.17823954 0.07902626 0.031954657 0.07349585 0.16193414 0.07433869 0.07402853
0.07380155 2.602018e-06 0.0014373744 0.0014459189 0.07938222 0.0014588457 0.073300876 0.12196125
0.0014508325 0.07376626 0.0014297018 0.0016565517 0.026861204 0.32979083 0.16743284 0.20481248
0.16182764 0.07856163 0.16245319 0.16820802 0.16527091 0.16574648 0.16697802 0.075745136
0.10740256 0.07466354 0.08053476 0.0018707393 0.16486882 0.0017672102 0.08130268 0.16397797
0.095377885 0.002992659 0.1350326 0.32982212 0.306955 0.16763039 0.16002297 0.020647494
0.1775304 0.1633812 0.00089402293 0.28205815 0.16984522 0.16628934 0.042383693 0.17073785
0.022426032 0.0014453923 0.16507196 0.12918766 0.0014771526 0.33080304 0.20741592 0.0021581927
2.1912694 1.6653178 0.08584568 0.17817017 0.106682606 0.019229125 6.3205436e-05 0.072829515
0.083514825 0.073389664 0.01977457 8.4613094e-07 0.016803443 0.001419219 0.004403286 0.0018434785
0.07344462 0.0019633498 0.084285945 0.01938207 0.0014427633 0.0015099747 0.021123044 0.16285819
0.17063409 0.19122739 0.020759968 0.00013651018 0.17283946 0.18995088 0.07335775 0.16574273
0.0014667384 0.00012474725 0.001429089 0.16490103 0.0014296626 0.0014555531 0.25898412 0.005801536
0.0014387434 0.07406924 0.0014395764 0.20348477 0.1949379 0.40430278 0.16453572 0.16484426
0.28609163 0.1719911 0.00079007255 0.16155934 0.16797972 0.16420399 0.07345467 0.019417718
0.16814874 0.0014732665 0.08327612 0.16373713 0.0016985857 0.47822052 0.17690113 0.07336174
0.0014477981 0.0016982254 0.0024457262 0.13382074 0.1673638 0.18854758 0.00377431 0.0006923461
0.0017906765 0.006533534 0.0010171586 0.16610675 0.07298462 0.018487321 0.001452005 0.0017572663
00000000: 5154 b340 4539 cc40 94be 6a40 2d33 9c3e
00000010: 2add 293e c103 9d3d 1d4c 473e 9397 2f3e
00000020: e7d0 283e 7906 3240 ff51 4b3e abd2 9d3d
00000030: 3f1b e13d 9822 9e3d 0c08 c63c 532b 973d
00000040: 37eb 293e c7c8 753e 53b0 ac3d 95df 0c3f
00000050: 50f7 c43d 3172 983d a4d8 5940 5e9a 8040
00000060: 7544 383e 5163 2040 0bad 3c3e b3a7 a33d
00000070: 5922 983d 291d 263e ca74 993d b8e2 333e
00000080: 3c46 653f 61dc a03d 61d7 f53d 80a7 963d
00000090: 3792 da3c 8020 b43a 9b99 e23a 1a4c f03d
000000a0: d93a aa3d ab87 963d 325d c83d 99d8 033b
000000b0: c03e da3f 4a38 2640 d82b 2c3e 992b 3c3e
000000c0: ba6c 2440 db23 eb3f 692d 293e 79df 243e
000000d0: c6d7 323e 6900 2b3e 4293 343e 4e9f aa3d
000000e0: 86bd bc3f b990 283e 2868 473e b4e0 983d
000000f0: e6f1 b13a 3b41 6b3e 3ab8 403e 6aef 273e
00000100: a9a7 d03d dec8 283e ff7e 383f e102 923f
00000110: 1da9 423e d7f8 bc3f 1e2a 2b3e 6b6a 2b3e
00000120: 8aaf 2b3e 0794 203e 09a4 293e 37ef 3e3e
00000130: 215f 913f af88 3d3f 5350 423e 2ab8 9c3d
00000140: 4f9f c73d 8059 983d d92c 1d3b 3b5d 733e
00000150: 2279 373e fa41 8e3e 2378 c73e 1a59 223b
00000160: 728f 483f ed5e 653f 975f 293e 0234 2b3e
00000170: eb25 563f 72e5 b53d 8a77 283e 7ca4 253e
00000180: a16e 3a3f 2672 283e 2005 9a3d 2aa1 963d
00000190: 86a2 e43d 9f46 c53a 74cf ab3d c755 553e
000001a0: 6b9b 1b3b 7424 033e 215b c03e 0a5d 323e
000001b0: 19fb c83d 81a3 0a3b 1231 e43e e9e9 ad3e
000001c0: 43c7 2a3e 6d84 363e 85d8 a13d e3e2 023d
000001d0: fe84 963d 10d2 253e e23e 983d 459c 973d
000001e0: 4425 973d 549e 2e36 4866 bc3a fd84 bd3a
000001f0: 2593 a23d bd36 bf3a c51e 963d d2c6 f93d
00000200: dc29 be3a c412 973d d564 bb3a a720 d93a
00000210: 070c dc3c 58da a83e 8473 2b3e 5dba 513e
00000220: 25b6 253e ebe4 a03d 215a 263e b93e 2c3e
00000230: c73c 293e 72b9 293e 49fc 2a3e 4420 9b3d
00000240: e0f5 db3d 33e9 983d 69ef a43d 9833 f53a
00000250: 5fd3 283e bca1 e73a 0582 a63d d7e9 273e
00000260: 7b55 c33d 7d20 443b fc45 0a3e 72de a83e
00000270: 3529 9d3e 4da7 2b3e 10dd 233e ef24 a93c
00000280: 87ca 353e 674d 273e dd5c 6a3a ed69 903e
00000290: e8eb 2d3e c147 2a3e 869a 2d3d e7d5 2e3e
000002a0: ccb6 b73c 5173 bd3a a008 293e c549 043e
000002b0: 049d c13a 045f a93e d764 543e 7770 0d3b
000002c0: c23d 0c40 2229 d53f dccf af3d 3e72 363e
000002d0: 697c da3d 6686 9d3c 298d 8438 a427 953d
000002e0: d209 ab3d 524d 963d 47fe a13c ad21 6335
000002f0: 60a7 893c 1605 ba3a 7149 903b e0a0 f13a
00000300: 226a 963d 8bab 003b 1c9e ac3d 26c7 9e3c
00000310: 1a1b bd3a 58ea c53a 3c0a ad3c 4cc4 263e
00000320: b4ba 2e3e 1dd1 433e cf10 aa3c 2c24 0f39
00000330: d4fc 303e 7c82 423e 973c 963d 76b8 293e
00000340: 933f c03a 96ce 0239 4550 bb3a d1db 283e
00000350: 8463 bb3a 42c8 be3a 9199 843e d01a be3b
00000360: 3894 bc3a 9db1 973d 2bb0 bc3a 505e 503e
00000370: cd9d 473e c600 cf3e 0d7c 283e efcc 283e
00000380: 9a7a 923e 6f1e 303e df1c 4f3a d06f 253e
00000390: e002 2c3e 1725 283e 676f 963d e811 9f3c
000003a0: 2f2f 2c3e 9f1a c13a ac8c aa3d b5aa 273e
000003b0: 14a3 de3a 52d9 f43e 9225 353e ae3e 963d
000003c0: 0bc4 bd3a fd96 de3a 7a48 203b 4e08 093e
000003d0: 6a61 2b3e 9e12 413e 6a5a 773b 8f7e 353a
000003e0: 22b5 ea3a 4117 d63b 2e52 853a e317 2a3e
000003f0: f678 953d b972 973c 3451 be3a 1354 e63a

max_exp_avg_sq f4 [14, 22, 1]
24.167425 26.728327 14.982523 0.56755364 0.16588274 0.076667316 0.19462629 0.17147665
0.1648594 10.384676 0.19855857 0.07706197 0.110004656 0.07721442 0.024200158 0.0738131
0.16593634 0.24040319 0.08432069 1.469753 0.09619866 0.07443655 14.6477375 16.488976
0.17994864 9.822435 0.18561517 0.079909705 0.07428426 0.16222061 0.07492979 0.17566955
2.9637082 0.07854534 0.12014885 0.07356167 0.026903119 0.003183498 0.0044661174 0.11747868
0.083120055 0.07350095 0.09797352 0.00553063 7.3535314 10.474729 0.168136 0.18376006
10.289075 7.208904 0.16521229 0.16100873 0.17465124 0.16699375 0.176343 0.08331166
5.887246 0.16461457 0.19473326 0.07464734 0.0031275498 0.23061712 0.18820277 0.16399923
0.10201202 0.16482875 2.9996963 4.2968564 0.19009824 5.587946 0.16715285 0.16739814
0.16766182 0.15681468 0.1656648 0.1864594 4.080345 2.3551252 0.18975954 0.07652314
0.09763098 0.07438946 0.0072683487 0.23822911 0.17917302 0.27837554 0.9712102 0.0076235984
2.5246382 3.287769 0.16540371 0.16719058 2.848831 0.08881654 0.1645185 0.16176027
2.3424723 0.16449794 0.07520509 0.07354958 0.1121531 0.0034664902 0.08389178 0.20833503
0.007264901 0.12855151 0.6095825 0.17418304 0.09820674 0.0062650675 1.8998669 0.83481884
0.16677575 0.17823954 0.07902626 0.043265793 0.07349585 0.16193414 0.07433869 0.07402853
0.07380155 1.1325092e-05 0.0030807932 0.003093897 0.07938222 0.0033788113 0.073300876 0.12213567
0.003351526 0.07376626 0.0030889376 0.003852656 0.06674052 0.33010733 0.16743284 0.20481248
0.16182764 0.07856163 0.16245319 0.16820802 0.16527091 0.16574648 0.16697802 0.075745136
0.10752377 0.07466354 0.08053476 0.0048331283 0.16486882 0.0041693584 0.08130268 0.16397797
0.09539517 0.010533843 0.51099366 0.8319114 0.603729 0.16763039 0.16055341 0.020647494
0.1775304 0.1633812 0.003728352 0.47893685 0.16984522 0.16628934 0.042572897 0.17073785
0.022426032 0.0030925428 0.16507196 0.12932715 0.0034089047 0.3311753 0.20741592 0.0063682245
9.39479 6.332563 0.08584568 0.17817017 0.12666237 0.019229125 0.0002670591 0.072829515
0.083514825 0.073389664 0.01977457 3.6825966e-06 0.030616354 0.0032007992 0.011138674 0.0047398107
0.07344462 0.0055620247 0.084285945 0.01938207 0.0030934843 0.003489651 0.07329548 0.16323717
0.17063409 0.19122739 0.021371013 0.0005695531 0.17283946 0.18995088 0.07335775 0.16574273
0.006167345 0.0005052551 0.0030874868 0.16490103 0.0032138461 0.0031048434 0.2590396 0.01632004
0.0031775092 0.07406924 0.0030857401 0.2035193 0.5374822 1.2256202 0.16453572 0.16484426
0.5224136 0.1719911 0.0032777218 0.16155934 0.16797972 0.16420399 0.07345467 0.019417718
0.16821605 0.0031369382 0.08327612 0.16373713 0.0042652134 1.4458113 0.17690113 0.07336174
0.0030918757 0.0038028606 0.009799004 0.13406336 0.1673638 0.18854758 0.015282884 0.0029462301
0.0074988613 0.025267988 0.004280197 0.16610675 0.07298462 0.018487321 0.0031020183 0.004101052
00000000: e356 c141 9dd3 d541 6ab8 6f41 324b 113f
00000010: 2add 293e c103 9d3d 1d4c 473e 9397 2f3e
00000020: e7d0 283e a227 2641 f052 4b3e abd2 9d3d
00000030: 1f4a e13d 9822 9e3d 693f c63c 532b 973d
00000040: 37eb 293e 412c 763e 53b0 ac3d de20 bc3f
00000050: ce03 c53d 3172 983d 225d 6a41 6ce9 8341
00000060: 7544 383e b228 1d41 e711 3e3e b3a7 a33d
00000070: 5922 983d 291d 263e ca74 993d b8e2 333e
00000080: 65ad 3d40 61dc a03d 9a10 f63d 80a7 963d
00000090: ee63 dc3c 3ca2 503b 8258 923b aa98 f03d
000000a0: d93a aa3d ab87 963d 57a6 c83d 493a b53b
000000b0: 2150 eb40 7d98 2741 d82b 2c3e 992b 3c3e
000000c0: 0da0 2441 57af e640 692d 293e 79df 243e
000000d0: c6d7 323e 6900 2b3e 4293 343e 4e9f aa3d
000000e0: 5264 bc40 b990 283e 2868 473e b4e0 983d
000000f0: 94f7 4c3b e526 6c3e 3ab8 403e 6aef 273e
00000100: aeeb d03d dec8 283e 06fb 3f40 d97f 8940
00000110: 1da9 423e 74d0 b240 1e2a 2b3e 6b6a 2b3e
00000120: 8aaf 2b3e 0794 203e 09a4 293e 37ef 3e3e
00000130: 3092 8240 5fba 1640 5350 423e 2ab8 9c3d
00000140: c0f2 c73d 8059 983d 542b ee3b 55f2 733e
00000150: 2279 373e 3d87 8e3e 3ba1 783f 61cf f93b
00000160: ac93 2140 cf6a 5240 975f 293e 0234 2b3e
00000170: 3f53 3640 72e5 b53d 8a77 283e 7ca4 253e
00000180: 11eb 1540 2672 283e 2005 9a3d 2aa1 963d
00000190: 86b0 e53d 0e2e 633b 74cf ab3d c755 553e
000001a0: 680e ee3b 02a3 033e 990d 1c3f 0a5d 323e
000001b0: 9e20 c93d 324b cd3b d72e f33f b0b6 553f
000001c0: 43c7 2a3e 6d84 363e 85d8 a13d 7937 313d
000001d0: fe84 963d 10d2 253e e23e 983d 459c 973d
000001e0: 4425 973d e600 3e37 22e7 493b fac2 4a3b
000001f0: 2593 a23d 0c6f 5d3b c51e 963d 4422 fa3d
00000200: 47a5 5b3b c412 973d c66f 4a3b d87c 7c3b
00000210: 41af 883d d403 a93e 8473 2b3e 5dba 513e
00000220: 25b6 253e ebe4 a03d 215a 263e b93e 2c3e
00000230: c73c 293e 72b9 293e 49fc 2a3e 4420 9b3d
00000240: 6c35 dc3d 33e9 983d 69ef a43d 385f 9e3b
00000250: 5fd3 283e 1d9f 883b 0582 a63d d7e9 273e
00000260: 8b5e c33d 2496 2c3c 7bd0 023f 25f8 543f
00000270: fc8d 1a3f 4da7 2b3e 1d68 243e ef24 a93c
00000280: 87ca 353e 674d 273e 5e57 743b 3637 f53e
00000290: e8eb 2d3e c147 2a3e eb60 2e3d e7d5 2e3e
000002a0: ccb6 b73c 42ac 4a3b a008 293e 566e 043e
000002b0: ee67 5f3b cf8f a93e d764 543e 8aac d03b
000002c0: 0f51 1641 5ba4 ca40 dccf af3d 3e72 363e
000002d0: c8b3 013e 6686 9d3c 1104 8c39 a427 953d
000002e0: d209 ab3d 524d 963d 47fe a13c 8722 7736
000002f0: 26cf fa3c 80c4 513b fc7e 363c 6a50 9b3b
00000300: 226a 963d a541 b63b 1c9e ac3d 26c7 9e3c
00000310: 0ebc 4a3b a1b2 643b f11b 963d a527 273e
00000320: b4ba 2e3e 1dd1 433e 4312 af3c 104e 153a
00000330: d4fc 303e 7c82 423e 973c 963d 76b8 293e
00000340: 7117 ca3b 1973 043a 6f57 4a3b d1db 283e
00000350: 649f 523b a17a 4b3b d7a0 843e 9bb1 853c
00000360: c23d 503b 9db1 973d 213a 4a3b 5d67 503e
00000370: 6f98 093f 1fe1 9c3f 0d7c 283e efcc 283e
00000380: e6bc 053f 6f1e 303e 0ccf 563b d06f 253e
00000390: e002 2c3e 1725 283e 676f 963d e811 9f3c
000003a0: d440 2c3e 1795 4d3b ac8c aa3d b5aa 273e
000003b0: 34c3 8b3b 5810 b93f 9225 353e ae3e 963d
000003c0: 11a1 4a3b 6a39 793b 008c 203c e847 093e
000003d0: 6a61 2b3e 9e12 413e 1065 7a3c 8a15 413b
000003e0: 02b9 f53b d0fe ce3c e540 8c3b e317 2a3e
000003f0: f678 953d b972 973c 3b4b 4b3b 1e62 863b

t_observed f4 [4]
0.0 2.0 4.0 6.0
00000000: 0000 0000 0000 0040 0000 8040 0000 c040
